pretrained/pretrained_house_model.pth (torch, 893733 bytes, 25 tensors)

layer1.0.weight f4 [512, 69]
00000000: 3619 9f3c dc1d 2cbc 1660 e43c bff0 a03c
00000010: 3dd1 a13c f20a 14bd c19e ff3b 5a8e 033c
00000020: 706f 62bd 0e6c 473d fc11 2ebd 54e7 a7bd
00000030: 0633 40bd 20af 703d 12a9 b73c 18e1 dcbd
00000040: 2d14 31be 3564 64c0 074a b93e 946d 343e
00000050: f309 4ebe edaf 3a3d 3cdf 2ebd eca0 a8bd
00000060: de36 123e 0945 39be 0a38 61be 8041 32be
00000070: ea56 023e 26d8 213e 5098 ee3c aef9 fcbb
00000080: 2ebe 143e c1e0 c73e d861 17bd e8c9 03be
00000090: c05a 1b3b 3a90 a5bb 040f 80be be48 87bd
000000a0: 2c58 1dbd 28aa 6c3d e0ec 603e c1c4 0d3e
000000b0: b166 2a3d 8b26 6b3e 6573 3f3e b009 d5bd
000000c0: f10a f03b 1cf5 8ebe d5b7 963d 78b6 1e3d
000000d0: 9979 e2bd 393b f4bc 1ed9 323d fe8a d2bd
000000e0: 0659 17be 7769 6ebb 3736 8f3d 2160 d2bd
000000f0: 6328 d3bd dae3 6f3c 22b2 a5bc f466 363e
00000100: af1e 83be fba5 873d b3ab 66be a20e da3d
00000110: bc9e acbb a923 e43d 5a10 5f3d f8df 003c
00000120: e643 13be 3fdd 6f3d 153b aabc 99fc 943f
00000130: df48 133e c301 97bd 44ed 4fbb 644f 0bbe
00000140: 5b02 02bd c8b1 4ebe 57eb 9d3d 43c6 5bbd
00000150: 9bea d8bd 0ac5 73be b6d5 f43f 570e 85be
00000160: 55e0 6a3d 127b 0ebc 39a0 353d 0510 b53f
00000170: bd7f 9c3f e34b dcbc 0877 a53d 97ac a13d
00000180: 0a88 af3e 9fc7 dfbd 075f 473c 9950 79bc
00000190: 5889 a63b 73c6 973e 49a9 9e3e fc86 733d
000001a0: 490e 93bd fd50 84bc ec4d 6fbe defa 88be
000001b0: b9e9 ea3d 28f8 543e 1483 963d 1288 d83e
000001c0: 0382 f6bd 0d6e 623d cd44 18be 17ce 9c3e
000001d0: 53b2 9c3e 5f7a 8f3e 471e 5e3e 65e2 c53d
000001e0: 48dd 38bd 5eab 713e e65c b03d 0afe 27bd
000001f0: a6e6 b4bd eb63 b6bd 6a6f 99bd 5dc8 803d
00000200: c24f 6bbe 1b64 b5bd b5d2 f3bd 63d8 2e3d
00000210: 537c 0c3e b35f 2cbe 8bac ce3e 1ea3 c9bd
00000220: 2c0d c13d b6af 05bd 4881 ca3d 9f5c d63b
00000230: 0380 633d 1319 f73d 9207 84bd ac42 683b
00000240: d9cb c1bd 573d 43bc 2e5e cb3c 9fef 87bd
00000250: 271d 453c 3c48 9e3d 7575 2ebb 5d2b 4dbd
00000260: 199b 583d b122 78be 658d 85be cb65 5cc0
00000270: 8222 cabe eb3f 03be 5184 11bd 8b55 603c
00000280: 1dd8 0dbe 7929 df3d 153c 33bd 42df e3bd
00000290: fcab cf3d 6f08 043e 2078 c3be ed23 d7bd
000002a0: 3072 93be 1755 983e 4eae 66be b57a fe3e
000002b0: 681f 1d3d 255d 0fbd 76d0 6f3d 0ad2 6b3e
000002c0: 01b6 c03e c8a2 37bd d473 94bc 8a41 25bd
000002d0: d321 c7be d1c5 cc3e 8aef 223e 370b 2a3d
000002e0: 4b90 06be 823f 1fbd c801 633e 6ba1 a03e
000002f0: f91e d6bc 5c43 76be 5de0 cd3d c195 04be
00000300: 11e6 4fbe 56e4 a4be ab6d 3e3d cf8b 4d3e
00000310: a8aa 8abe 4347 af3d 66b3 a13e 87f0 b63c
00000320: d90c 55be 28b8 9cbd 1940 bfbe 1df1 3dbe
00000330: 8264 313e ee09 a43e e4a1 2b3d 3d20 be3d
00000340: 1d0f 453d a01b f4be 09a8 0abc 7508 9abe
00000350: 0b59 c93e 3ece 933d fd77 5d3d 2624 a93d
00000360: e6ca ff3e f982 49be 166d 043e 177c e2bd
00000370: cca2 2d3d eada 033e 131b 843e 45a7 7e3e
00000380: 44ff 92bc bace 853d 4db6 243d 6d3d 7fbc
00000390: 7393 1dbd 0f73 cc3c 70ff a3bd f6f4 0ebf
000003a0: 5811 38bf 6826 07bf e891 2abf d7f3 0f3e
000003b0: 383b b73e ea96 213e 09e4 d33e ade1 233e
000003c0: 42d6 c9be 0a9e 843d 6c95 6a3e 7d55 893e
000003d0: 7499 c9bd 969a 56be 87cd cc3c 0d5c c4bd
000003e0: 755d 2f3e 8b75 51bf 880b 49bf ae09 313e
000003f0: bdd5 b9be a6e3 3cbd aa28 973e c773 24bf
0.019421201 -0.010505166 0.027877849 0.019646047 0.019753093 -0.03614325 0.0078009074 0.008029545
-0.055282056 0.048687033 -0.04249762 -0.08198419 -0.04692366 0.058760762 0.022419486 -0.10785121
-0.17292853 -3.5686162 0.3618929 0.17619926 -0.20120983 0.045577932 -0.04269336 -0.082338184
0.14278743 -0.18092741 -0.21994033 -0.17407799 0.12728468 0.1580511 0.029125363 -0.007720194
0.14525673 0.3903866 -0.036958545 -0.1286999 0.0023705214 -0.0050525935 -0.25011456 -0.06605671
-0.038414165 0.05777946 0.2196536 0.13844587 0.04160184 0.22963922 0.18696363 -0.10402238
0.007325523 -0.2792138 0.07359282 0.038748235 -0.11058349 -0.029813396 0.04366409 -0.10280417
-0.14780053 -0.003637878 0.069927625 -0.102722414 -0.103104375 0.014641726 -0.020226542 0.17812711
-0.25609347 0.06623455 -0.22526436 0.10647322 -0.005267946 0.11139614 0.054458953 0.007865898
-0.1438137 0.058560606 -0.020780126 1.1639587 0.14383267 -0.07373383 -0.0031727115 -0.13604504
-0.031740528 -0.20185006 0.07710903 -0.053655874 -0.105916224 -0.23805633 1.9127719 -0.25987503
0.057342846 -0.008696334 0.044342253 1.4145514 1.2226483 -0.026891654 0.08079344 0.07894247
0.34283477 -0.109267466 0.012168652 -0.01521697 0.0050822906 0.29643592 0.3098853 0.059454903
-0.07180459 -0.0161519 -0.23369569 -0.26753896 0.1147036 0.20797789 0.0734922 0.42291313
-0.120365165 0.055280734 -0.14869995 0.30625984 0.306048 0.2802305 0.21691237 0.09662322
-0.045132905 0.23600528 0.08611469 -0.041013755 -0.08833055 -0.089057766 -0.07491954 0.06288216
-0.22979644 -0.08856984 -0.119054236 0.04268683 0.13719301 -0.16833381 0.40366015 -0.09845565
0.094263405 -0.032638274 0.0988794 0.006541803 0.055542003 0.120653294 -0.064467564 0.003544013
-0.09462709 -0.01191648 0.024825182 -0.06637501 0.012030876 0.07728621 -0.0026620303 -0.050090183
0.052882288 -0.24231984 -0.26084438 -3.443713 -0.39479452 -0.12817352 -0.035526577 0.01369227
-0.13851972 0.10896582 -0.04375847 -0.111265674 0.10140225 0.12893842 -0.38177586 -0.10504899
-0.28798056 0.29752418 -0.2252743 0.49702993 0.03836003 -0.03500094 0.058548413 0.23029342
0.37638858 -0.044832975 -0.018121637 -0.040345706 -0.38892993 0.39994672 0.1591169 0.0415146
-0.13140981 -0.038878925 0.22168648 0.31373152 -0.026137816 -0.24049133 0.100525595 -0.12947752
-0.20302607 -0.32205456 0.046491306 0.20072864 -0.27083325 0.08558514 0.31582183 0.02233149
-0.20805682 -0.076523125 -0.3735359 -0.18549009 0.17323497 0.32038826 0.041902438 0.09283493
0.048110116 -0.47677326 -0.008462914 -0.30084577 0.39325747 0.07217072 0.054069508 0.08258848
0.49959487 -0.19678868 0.12932238 -0.110588245 0.042391583 0.12876478 0.25801906 0.24868496
-0.017943986 0.065335706 0.040212918 -0.01557861 -0.038470697 0.024957208 -0.08007705 -0.5584253
-0.71901464 -0.5279298 -0.66628885 0.14057861 0.35787368 0.15780225 0.41384915 0.16004057
-0.39421278 0.06475456 0.22908562 0.26823035 -0.09843722 -0.20957407 0.025000347 -0.0958787
0.17125495 -0.8181998 -0.7853322 0.17288849 -0.36295882 -0.04611554 0.29523212 -0.6423916

layer1.0.bias f4 [512]
00000000: fbce 273d 86f8 743d 2b9b febb ebdd e1b9
00000010: ba2f 583d b417 463d 428b 35bd d97d 96bb
00000020: fb4d e2bd d74d 21bd 2f0a bc3d 091c cfbc
00000030: a192 e03c 686b 1c3d d702 4a3d cf2d 0dbd
00000040: 482b 26bc 8638 e63d b07e 21bd 3295 adbc
00000050: 240e 41bb 7dc8 013d e4cc b3bb 3837 2abd
00000060: 9bea 9e3a a6cb 93bd b775 b5bc 4071 d0bd
00000070: 8998 3d3c 1041 cf3d c95e adbc 1c53 d5bc
00000080: 8b0b a33c 50bb 813d f0a4 2dbd 0c6a e4bd
00000090: 736a b4bd 547c 473d 8ef2 953d 928c dc3d
000000a0: 3a6d b13d a01d a4bd ce74 f43d c0d3 2ebd
000000b0: 83c0 0ebd ab82 4ebb cf51 75bd 34ea a0bd
000000c0: 0409 283a 5127 50bd 3b60 ac3c 1cef d2bd
000000d0: b84d 7e3d 1307 85bd f884 cebd 0f31 223d
000000e0: a9ef d7bd 3c6c 993c 8965 273d f10d f2bc
000000f0: fccf d83d dfdd 8c3d b824 d33d 60de 883d
00000100: b899 debd 589d c63d 1c56 92bd 67bd 1f3c
00000110: ba5b a0bd db2f 2abc 12e4 083d 0ed7 e0bd
00000120: 6407 d63d c8c0 e23d 06bf 94bc f866 64bc
00000130: e4e4 41bd d0a7 d2bd 1094 a33d 26ad 7cbd
00000140: 0990 90bd 607b 0dbd f4fa 913d 7c62 28bd
00000150: 72c4 e73d 4256 e13b 38e1 cdba 9b3b bebc
00000160: 34f1 47bd 6ba8 b13d 21bf c33d 0df7 c7bd
00000170: 5d66 c3bd e517 ac3d 6039 d9bd a9f9 d83d
00000180: a740 52bc cb9d a53c c5d5 4cbd fa06 77bc
00000190: 7acb 27bc 7927 bb3d 31c5 bdbd ae83 e93d
000001a0: 2afb cabd f14a cbbb 4545 28bc 1853 4f3d
000001b0: 0d97 8c3c f69c 843d a2d5 acbc cfa1 a83d
000001c0: e7c7 e53b ee57 f63c 709f 26bd 2972 1fbc
000001d0: 4913 2fbc d538 443b ae7c b8bd 6ee7 e33a
000001e0: 5529 1dbd de94 09bd b980 20bd 3671 983c
000001f0: c53b 4e3d 3ff7 dcbd cc58 8dbd a06b c33d
00000200: 39a4 483d 8af0 aa3d c333 ac3d a2dd 09bd
00000210: 1ba5 793d 4c72 b83d 39ec 3b3d 17dd 8bbd
00000220: 455e bbbd 55eb b43d e929 af3d ea3a febc
00000230: 5bbc 6dbd c359 99bd 35d7 ccbd 2c5d 1ebd
00000240: d2fd cfbc b40d 3fbd b37f fdbc 6d43 ebbd
00000250: 6ebb f4bd 30ce 4dbd e476 343d 443b f13d
00000260: 86d5 83bd 845e ab3b 4b4b 0abd 3a55 ebbc
00000270: 7bdb f0bd 6e36 b3bd 38e0 42bd e0f7 5dbd
00000280: 532f e73d 0e05 5dbc 2684 003d 1d48 753c
00000290: 4ca4 04bc 035a d4bd e100 c23d ecbf 9b3d
000002a0: 9459 1d3d 388b c3bd a6ce f2bd 42c3 973c
000002b0: a51b 90bc 57c6 743d 5943 8fbd be67 9e3d
000002c0: 7a31 9f3d a9c3 89bd 3821 d23d 6185 1dbd
000002d0: 7507 3d3d 0de6 da3c a607 dfbd 8216 553d
000002e0: f0c1 5d3d d2a8 b83d b0eb d13d 95cc 543d
000002f0: 845e 8ebc 1bca ae3c 6f53 f4bd bff8 873c
00000300: 4248 b8bd 8221 863d 1d9f 80bd 7c44 b7bc
00000310: aae5 ba3d 7b13 eebc 5769 39bc 8ec4 b23d
00000320: 9a26 df3d 25c5 4f3d 4225 89bd ef7e 7e3d
00000330: ec53 bf3d c9ae 103d b70f 993d 105b 9dbd
00000340: d12a 413d c372 ac3c dc5a 98bb d4f9 22bd
00000350: 4051 ed3d e4b0 cdbd b14f d9bd d66b d63d
00000360: d928 903d 6145 7ebc 50a6 c03d 7ac3 7abd
00000370: e356 a53d c7bb cf3d d346 edbd 19a0 cbbc
00000380: 5307 13bd 9897 b8bd a38f 803b 1504 d5bd
00000390: a8f1 d9bc a072 c53d 86c9 863d dfe2 e03d
000003a0: 11c5 dd3d 9c09 15bd eabb 753d 23e9 b7bd
000003b0: 0b88 07bd 1987 bdbd 4904 ab3d 1390 0abd
000003c0: 1692 85bd 5fb1 afbc f97e c3bd 70f3 713d
000003d0: 1f91 133c 523c ee3c 934b b4bc 3b1f 253d
000003e0: 4526 703c 747a afbd 1019 5dbd b1a2 ef3d
000003f0: febd 87bd 8b81 b5bd 5e89 393d d2cf 903a
0.040968876 0.059807323 -0.0077699623 -0.00043080686 0.05277989 0.04836245 -0.04432226 -0.004592639
-0.1105003 -0.039380874 0.0918163 -0.025281923 0.027413668 0.038188368 0.049319115 -0.034467515
-0.010142155 0.1124125 -0.03942746 -0.021189306 -0.0029457891 0.03168534 -0.0054870714 -0.041556567
0.0012124361 -0.07216577 -0.022150857 -0.10177851 0.011572012 0.101198316 -0.021163361 -0.026040606
0.019902965 0.06334555 -0.042393625 -0.11153039 -0.08809366 0.048702553 0.07321654 0.10768999
0.086634114 -0.08013463 0.11936341 -0.04268241 -0.034851562 -0.003151099 -0.059892472 -0.07857171
0.0006410035 -0.050818745 0.02104198 -0.10299513 0.062085837 -0.0649549 -0.100839555 0.039597567
-0.105437584 0.018728368 0.040868316 -0.029547663 0.10586545 0.06878256 0.10309738 0.0668304
-0.10869163 0.0969798 -0.0714533 0.009749747 -0.078299955 -0.010387386 0.03342063 -0.109785184
0.104506284 0.11071926 -0.018157493 -0.013940565 -0.047337428 -0.10285914 0.07987225 -0.061688565
-0.070587225 -0.034541488 0.07127944 -0.041109547 0.11316766 0.006876738 -0.0015707379 -0.023221781
-0.048814014 0.08674701 0.09557939 -0.09763918 -0.095410086 0.08402995 -0.106066465 0.10594494
-0.012832797 0.020216843 -0.050008554 -0.015077347 -0.010241384 0.09138388 -0.09266127 0.11402069
-0.09911187 -0.006204002 -0.010270421 0.050616354 0.01716187 0.064752504 -0.021097962 0.082339875
0.0070123556 0.030071225 -0.040679395 -0.009731808 -0.01068575 0.00299411 -0.09008156 0.0017387697
-0.038369495 -0.033589236 -0.03918526 0.01860867 0.05034997 -0.10789346 -0.06901702 0.09542012
0.04898474 0.083466604 0.0840831 -0.03365863 0.060948472 0.090061754 0.045879576 -0.06829279
-0.0914884 0.088339485 0.085529156 -0.031033952 -0.058040958 -0.07487824 -0.10001985 -0.038663074
-0.025389586 -0.046643928 -0.03094468 -0.1148747 -0.11949812 -0.050245464 0.044058695 0.11778882
-0.06437211 0.005229773 -0.03376321 -0.028727163 -0.117606126 -0.08750616 -0.047577113 -0.05419147
0.11288323 -0.013489975 0.031376027 0.014970806 -0.008095812 -0.10368731 0.09472824 0.076049656
0.038415506 -0.09548038 -0.11855821 0.018525723 -0.017591307 0.059759464 -0.069952674 0.07734631
0.07773109 -0.06726772 0.10260242 -0.03845728 0.04614969 0.026721025 -0.10890131 0.05202342
0.05414003 0.09016575 0.10250032 0.051952917 -0.017379053 0.021336606 -0.11929976 0.016598104
-0.08998157 0.0654936 -0.062803484 -0.022371523 0.09125836 -0.029062023 -0.011316619 0.08728896
0.108960345 0.05072512 -0.066965595 0.062132772 0.09342179 0.035322938 0.074737005 -0.076833844
0.047159974 0.021050816 -0.004649503 -0.039789036 0.11587763 -0.10043505 -0.10610903 0.10469787
0.07039041 -0.015519471 0.094067216 -0.061221577 0.08073213 0.101432376 -0.11585774 -0.024856614
-0.035895657 -0.09013289 0.003923373 -0.10401169 -0.026604488 0.096410036 0.06581406 0.10980772
0.10828603 -0.036386117 0.059993662 -0.08980014 -0.033088725 -0.092542835 0.08350427 -0.033828806
-0.06522004 -0.021446882 -0.095457025 0.05907005 0.0090067675 0.029081497 -0.022008693 0.040312987
0.014657562 -0.08568278 -0.05397898 0.11700953 -0.06628035 -0.08862599 0.04529702 0.0011048263

layer1.1.weight f4 [512]
00000000: c0d5 903f aa28 053f d978 8f3f b500 ed3e
00000010: 4bfc 4f3f e510 113f ebc6 813f 15d5 893f
00000020: 8039 0e3f 86ff 823f a700 923f c1d6 503f
00000030: e397 263f 965a 953f fe86 a23f 7682 233f
00000040: 501c a13f aef3 803f fc98 883f ee6a 913f
00000050: 5290 103f 42a1 a13f 7147 103f 3dfa 8c3f
00000060: de75 073f 3f88 453f ec87 7e3f f318 923f
00000070: 784e a33f 27c0 943f 48de 883f e8a6 253f
00000080: 6bb4 4b3f 5f88 573f a9d4 813f 733d 8c3f
00000090: 0815 703f 999d 2b3f 3394 123f 4c64 fd3e
000000a0: 1f7a 8d3f 0a4f 8b3f 84c6 8b3f 7ddd 7c3f
000000b0: 550b 383f 9b1c 963f be31 993f 010d 993f
000000c0: c121 2b3f fcaf fa3e d3e9 8b3f 053c 343f
000000d0: 283b 3e3f 017d 903f f305 a63f 0c81 8f3f
000000e0: 3661 973f 9198 853f 4894 883f d3cd ad3f
000000f0: 795b 883f 3709 943f 7d81 043f 2a61 993f
00000100: 2fea 6f3f 58fa 693f 08b6 383f 05f7 a23f
00000110: 7618 903f d885 8f3f e0b7 6f3f 3fdd 763f
00000120: 8b12 0d3f c7cf 583f 3564 363f 9ea8 8e3f
00000130: 30f6 3b3f a40f a23f fee3 1f3f 14f9 5d3f
00000140: baad a73f 1073 8b3f 9548 743f 296f 273f
00000150: 25a7 933f bb6f 593f 2ee9 793f 823d 853f
00000160: 808e 813f 30b7 963f 89b3 3a3f 6e6e 9f3f
00000170: bf29 893f 9368 533f 09dd 8e3f 8b71 4a3f
00000180: d75e 773f 6224 893f e18f 323f 79bb 8d3f
00000190: 84a0 9e3f 0959 293f 978c 113f d44b 523f
000001a0: ff8c 3d3f fb12 703f 2389 833f b772 263f
000001b0: ca56 3d3f 5ff8 953f bf74 923f d084 313f
000001c0: a663 a43f f32d 9f3f 6bee 593f f56b a43f
000001d0: f3cc 9e3f 7c87 863f 866f 353f 8dc7 8d3f
000001e0: adc0 8a3f 7c0a 5b3f 0b75 8a3f 8703 733f
000001f0: 09bb 263f 11b9 893f c3a6 663f 4062 983f
00000200: 5729 8f3f f671 433f 00c4 733f 3271 953f
00000210: e023 9b3f 96ae 213f b4f4 873f f046 723f
00000220: 49e3 243f 6418 813f db44 ef3e c883 8d3f
00000230: 21a8 953f 0c58 933f 10be 953f dd33 2c3f
00000240: b947 953f b5b6 913f 7d32 9b3f 4bf9 403f
00000250: e33e 943f 1bfd 0c3f 820d 8d3f c7df 8a3f
00000260: 7be2 5f3f a55a 583f 95d5 5d3f d4da 9a3f
00000270: 081d 913f 152e 813f f8d5 403f e501 743f
00000280: d6f5 993f 54bd 2e3f 5897 d93e 5e26 2e3f
00000290: bb7b a43f bd38 a73f 7b62 8a3f 38cb 8f3f
000002a0: ed71 863f a037 833f 3c6d 833f 9b5f a23f
000002b0: 092f 2d3f 7a1c 3e3f 43db 453f 42e1 8c3f
000002c0: 768f 033f 2c47 813f a01a 803f e401 0d3f
000002d0: cbda 3d3f 238c 433f 0b2b 613f 94ac 4b3f
000002e0: 6c9e 853f ed90 533f f196 4a3f 5587 243f
000002f0: 5b64 953f 2013 813f ebbb 833f 7691 4a3f
00000300: d0c5 1c3f 306c 063f ec84 683f 6621 413f
00000310: b70d 1f3f 6eec 983f 0715 4b3f 4849 6b3f
00000320: 0aaf 483f 0d12 723f 3d58 0f3f a9a0 453f
00000330: e4cc 7d3f 9c5f 4c3f bbf8 0e3f 50de a53f
00000340: d89e 923f 6a62 0b3f 759c 1f3f 3221 4e3f
00000350: 0152 a23f 46b7 963f de85 a13f 690b 9d3f
00000360: 6cfb 433f 240d 7f3f 9c9b a93f 1fac 943f
00000370: 0ad6 a03f 9881 063f 17c0 8b3f 1efb 8a3f
00000380: 1513 4c3f 3779 2e3f 9960 333f 513a 9b3f
00000390: 8059 963f 5e93 4b3f deb1 7e3f 0608 873f
000003a0: 81ea 3a3f 15bf dd3e 172d 373f 3d06 8f3f
000003b0: bd99 213f e73a 753f 9a48 f93e aa5d 9e3f
000003c0: 832e 903f bb7d 933f 3137 663f 04b7 723f
000003d0: cdbc 943f e005 2b3f 64c1 833f 1691 9a3f
000003e0: 0227 7f3f 4cbc 263f 42f7 583f 1d1c a03f
000003f0: 58e1 833f 44d6 893f baf5 073f a3d8 1a3f
1.1315231 0.52015173 1.1208755 0.46289602 0.81244344 0.56666404 1.013883 1.0768152
0.5555649 1.023423 1.1406449 0.8157769 0.6507551 1.166827 1.2697446 0.6387094
1.2586765 1.0074365 1.0671687 1.1360757 0.56470215 1.2627337 0.5635901 1.1013867
0.52914226 0.7716102 0.9942615 1.1413864 1.2758322 1.162114 1.0692835 0.64707804
0.7957217 0.8419246 1.0143024 1.0956253 0.9378209 0.6703735 0.57257384 0.49490583
1.1052893 1.0883496 1.0919957 0.98775464 0.7189229 1.172748 1.1968305 1.1957093
0.6684838 0.4896239 1.0930732 0.7040408 0.74309015 1.1288148 1.2970566 1.1211257
1.1826541 1.0437185 1.0670252 1.3578438 1.0652915 1.1565312 0.51760083 1.1982777
0.9371671 0.9139762 0.7215276 1.2731634 1.1257465 1.1212721 0.93639946 0.96431345
0.5510642 0.84692043 0.71246654 1.1145208 0.7342253 1.2661023 0.62457263 0.8670819
1.3099892 1.0894489 0.9542325 0.6540399 1.1535383 0.8493611 0.9762143 1.0409396
1.0121613 1.1774654 0.729302 1.2455575 1.0715865 0.8258144 1.1161205 0.790795
0.9662909 1.0714228 0.6975079 1.1072837 1.2392735 0.6615148 0.5685515 0.82146955
0.7404327 0.9377896 1.0276226 0.6501879 0.73960555 1.1716422 1.1441878 0.6934328
1.284291 1.2435898 0.8512942 1.2845446 1.2406296 1.0510097 0.70873296 1.1076523
1.084005 0.8556287 1.0816969 0.9492726 0.65129143 1.0759603 0.9009821 1.1904984
1.1184491 0.76345766 0.9522095 1.167517 1.2120323 0.6315702 1.0621552 0.9463949
0.6440931 1.0085568 0.4673222 1.1055841 1.1691934 1.1511245 1.1698627 0.6726664
1.1662513 1.1383883 1.2124783 0.7538039 1.1581692 0.5507371 1.1019747 1.0849541
0.87454957 0.8451331 0.86654025 1.2098031 1.1336985 1.0092188 0.7532649 0.9531539
1.2028148 0.6825764 0.4249828 0.68027294 1.285026 1.306419 1.0811304 1.1233892
1.0503517 1.025135 1.0267711 1.2685426 0.67649895 0.742622 0.7728769 1.1006243
0.5139078 1.0099845 1.0008125 0.5508101 0.74161977 0.76385707 0.87956303 0.7956021
1.0438972 0.82643014 0.7913657 0.64269 1.1671251 1.0083961 1.0291723 0.79128206
0.6123934 0.5250883 0.9082782 0.75441587 0.621303 1.1947153 0.7932896 0.91908693
0.7839209 0.94558793 0.55994016 0.7719827 0.99140763 0.7983339 0.5584828 1.2958469
1.1454725 0.5444704 0.6234811 0.805194 1.2681276 1.1774681 1.2618978 1.2269107
0.76555514 0.99629426 1.3250613 1.1615027 1.256532 0.52541494 1.0917996 1.0857885
0.79716617 0.6815371 0.7006927 1.2127172 1.1746063 0.7952174 0.99490154 1.0549324
0.73014075 0.43309847 0.71553177 1.1173779 0.6312521 0.95793 0.48688203 1.2372334
1.1264194 1.1522745 0.89927965 0.9481051 1.1620117 0.6680584 1.0293393 1.2075527
0.99668896 0.6513107 0.84752285 1.250858 1.0303144 1.0768514 0.53109324 0.6048681

layer1.1.bias f4 [512]
00000000: 73d6 74be ad94 7d3d bc17 0bbf 4aea c83d
00000010: efa3 28be b09a 53be 83f0 c4be 6030 a3be
00000020: eb88 e3bd 518b 0ebe 66b8 99be fa2d 3fbe
00000030: 9851 f5be 3880 90be facf 21be 5823 14bc
00000040: e1e1 0bbf 5da5 ddbe e7fc 4bbf baaf 03bf
00000050: 1b48 4cbe ad01 8dbe 5c2a c93d fe40 febd
00000060: 714d e33d 93ca 32be 765e 16bf aaee b5be
00000070: 6948 09be 46ce 0bbf 3a25 87be d0c3 08bf
00000080: ff74 163e f179 d4be de22 3ebe 5a8d 6fbe
00000090: c5d9 03bf c3de 463e f9bf b23b 7d10 2c3d
000000a0: 25f4 cfbd ef7b 0dbf 0256 a9be 9ce2 c8bd
000000b0: 71bf e6be 57d8 d8be 7f7d 68be 62d4 9ebe
000000c0: a52c 98be bc65 993c 2943 83bf 2b22 103b
000000d0: 228b 1cbe 505e 6abf 89b5 08be 5ebf 0ebe
000000e0: d811 6bbe 893c dbbe 1e14 a4be ff9d 72be
000000f0: aa21 61be 8482 8abe ddd8 1f3e 2f68 47bf
00000100: 6977 48bf 1bb5 06bc ba95 f1be 3063 90be
00000110: dd13 68be 4629 24bf 3b37 c0be d9c2 5ebf
00000120: 40e0 f33d 2e60 75be c461 073e 2f58 40bf
00000130: 2a55 1fbe 92de d8be d47b cc3d e86f 10bd
00000140: ffba 9dbe e732 d4be 19c0 46bf 50be 56bd
00000150: 2f8a 89be ed73 43bd 5dcc b7bd 697a afbe
00000160: 30e2 0dbe 332e d3bd fedd c33d 852c 17be
00000170: e90b 4ebf cd76 07bf 0dd7 1abf 6d79 a73d
00000180: 071f adbe a767 e7bd ec58 66be 39f7 f9bd
00000190: 97c0 8dbe a6c5 dabd a2f9 503d 8fdc 2fbf
000001a0: ccbc f73d ab16 8cbf 2688 febe 7c14 eb3d
000001b0: 589b 6d3d b949 99bd a66c 08bf 82d0 243e
000001c0: bc7e 54be 84d7 53be d05c 27bf 0f46 a6be
000001d0: 0699 9dbe 41e2 b8bd a966 b33c dfe2 c4be
000001e0: a677 42bf 9889 07bf 7bae bfbe 4fa0 2bbf
000001f0: 3153 213e 7154 aebe fc42 5abf c843 16bf
00000200: 04b6 efbe 84e9 8fbe a355 0dbf 86c1 0abf
00000210: 8a68 97be 1de9 8e3d 20ba c8bd a4c4 e6be
00000220: cc67 923c 00de 91be 004a 52be 088e 82be
00000230: fa79 86be 2afd 2abf 789c 5abe e687 a0bd
00000240: b708 10bf 1a9f 63bf ecea 8fbe 8177 ed3d
00000250: 1c27 0fbe 03a7 babd 86d0 b0bd 1c84 97be
00000260: a505 b3be 44c5 f6bd 35d6 a53b 4c13 cabe
00000270: e642 d8bd 769e 3ebf f4bc 553e b633 60be
00000280: 0153 1abf b9fb d5bb 636c a23d 53eb 023e
00000290: f4c1 19be af41 8dbe 0a51 59be 76cd f0be
000002a0: 351d 0fbe 4f50 32bf 58fb 9ebe a8d4 2fbe
000002b0: bf98 14bd a5ba 19be 5ec2 1e3e c74c 74be
000002c0: 1a33 d8bd 8e36 05bf 9c62 87bf eda1 8abd
000002d0: be97 fc3d 753b ccbd d49c f4be eb48 bdbe
000002e0: ce6c c4be dd1b fcbe 4c45 16bf b5f1 f63d
000002f0: 8d3e 9bbe a996 30bf 99a2 4fbf f8b4 bcbe
00000300: 0b94 19be 7de2 933d 3e3f fabe 4c19 a5be
00000310: cb1e bebd fe6e 36be 681f 4b3e 3b4b 8fbe
00000320: 834a d7be f604 22bf 1a44 cdbd 1d6b 96be
00000330: f4cc 15bf 07e0 533e beff 143e 0941 ecbe
00000340: 6012 01bf f5b1 703d 438d 3f3e 8978 b6bd
00000350: 666a 41bf 0810 03bf 8663 9fbe f883 04bf
00000360: 99c6 e5be ce87 adbe 2f85 03be 8a9e 0bbf
00000370: 9f10 c0be cc26 04be bc46 17be 7fe8 c1be
00000380: 2d1a 19bc e78f d8be 504f 6a3d ac57 57bf
00000390: 158e 53bf bf75 50bf 5331 babe 3a1a 22bf
000003a0: c357 92bd ed7b 26bd 4754 d9be fa68 d5be
000003b0: 1c08 63bb 5be8 c6be e6b7 063e 7803 e7be
000003c0: 8f37 18be 7076 cfbe 5a52 70be 2b1d c3be
000003d0: 2901 b7be ded6 fdbd 8c34 02be 0139 e8bd
000003e0: 0e50 d9be 6992 863d dce8 b1bd 915c 0dbe
000003f0: bb41 f7bd 7791 38bf 09a7 c33d a28f 84be
-0.23909931 0.061909366 -0.5433309 0.09810312 -0.16468786 -0.20664477 -0.38464746 -0.31872845
-0.111100994 -0.13920332 -0.30023497 -0.18669882 -0.47913814 -0.28222823 -0.15801993 -0.00904163
-0.5464154 -0.43290225 -0.79682773 -0.5144001 -0.19949381 -0.2754034 0.098225325 -0.1241474
0.11098755 -0.17460088 -0.58737886 -0.3553365 -0.13406529 -0.54611623 -0.2639559 -0.53423786
0.14693068 -0.41499284 -0.18567988 -0.23393765 -0.51504165 0.19420914 0.005455014 0.042007912
-0.10153989 -0.5526723 -0.3307343 -0.09808847 -0.45067933 -0.42352554 -0.22704123 -0.3102141
-0.2972156 0.018725269 -1.0254871 0.0021993022 -0.1528745 -0.9155016 -0.133505 -0.13940188
-0.22956026 -0.42819622 -0.32046598 -0.23693083 -0.21985498 -0.270527 0.1561007 -0.77893347
-0.78307205 -0.00822189 -0.47184545 -0.28200674 -0.22663827 -0.6412548 -0.37542138 -0.87016064
0.11908007 -0.23962471 0.13220888 -0.7513456 -0.15559831 -0.42357308 0.09984556 -0.035262972
-0.3080673 -0.41445085 -0.7763687 -0.05242759 -0.26863238 -0.047717977 -0.08974526 -0.3427308
-0.13855815 -0.10311546 0.09563826 -0.14763077 -0.80486923 -0.5291565 -0.6048439 0.08177457
-0.33812734 -0.11299067 -0.22494859 -0.12205357 -0.27685997 -0.1068223 0.05101932 -0.6869592
0.12096557 -1.0944418 -0.49713248 0.114785165 0.058009475 -0.074847646 -0.53290784 0.16095164
-0.2075147 -0.20687681 -0.65375996 -0.32475325 -0.3078081 -0.090275295 0.021899538 -0.3845434
-0.7596382 -0.52944326 -0.37437806 -0.67041487 0.15754391 -0.340488 -0.8525846 -0.58697176
-0.46818554 -0.28107846 -0.55208796 -0.54201543 -0.29571944 0.069780566 -0.098011255 -0.450719
0.01787176 -0.28489685 -0.20536041 -0.25498986 -0.26264936 -0.6679255 -0.2134875 -0.078384206
-0.562633 -0.88914645 -0.2810892 0.11595059 -0.13979763 -0.09113886 -0.08633523 -0.2959298
-0.34965244 -0.12049344 0.005060936 -0.39467847 -0.10559635 -0.7446054 0.20872861 -0.21894726
-0.60282904 -0.006530252 0.079308294 0.12785082 -0.15015393 -0.27589175 -0.2122232 -0.47031754
-0.13975985 -0.6965379 -0.31051135 -0.17170966 -0.036278483 -0.15012605 0.15503833 -0.23857413
-0.10556622 -0.5203637 -1.0576968 -0.06769166 0.1233363 -0.09972278 -0.477759 -0.36969694
-0.3836426 -0.49240008 -0.5869949 0.12057821 -0.3032116 -0.6897989 -0.8110748 -0.36856818
-0.1499788 0.072209336 -0.48876375 -0.32245862 -0.09283217 -0.17815778 0.198362 -0.27987084
-0.42049035 -0.6328882 -0.10022755 -0.29378596 -0.5851586 0.20690928 0.14550683 -0.46143368
-0.50418663 0.058763463 0.18706231 -0.08909709 -0.75552976 -0.51196337 -0.31130618 -0.5176387
-0.4487808 -0.33892673 -0.12843774 -0.54538786 -0.3751268 -0.12905425 -0.14773077 -0.37872693
-0.00934462 -0.4229729 0.057204545 -0.8411815 -0.82638675 -0.81429666 -0.36365756 -0.6332127
-0.071456455 -0.04064553 -0.4244711 -0.41681653 -0.0034642285 -0.38849148 0.13156089 -0.45119834
-0.14864944 -0.40520048 -0.23468915 -0.3810819 -0.35743073 -0.12394498 -0.12715358 -0.11338998
-0.4244389 0.06570894 -0.086869925 -0.13804843 -0.12073084 -0.7209696 0.09553344 -0.25890833

layer1.1.running_mean f4 [512]
00000000: 620a 25be e4af 113e a4be 06bf b6c0 be3e
00000010: 3afb 463e ac3a 1c3f b93e 4abd ad85 eabe
00000020: 3666 0d3e 2dae 9cbe aa55 c3bc 28a3 853e
00000030: 05ff 2e3e c242 1abe a1d2 a4bd e7dd 81bd
00000040: acf0 d1bd ea25 a2bd bb88 47be f27f 75bd
00000050: 4de8 4e3e be70 89be ef62 0d3e ce0c 2abd
00000060: b083 683d e4ff 9cbd 9291 ce3d f62d 46be
00000070: d7e5 06be f8c9 e53c 308d d2be ad06 ed3e
00000080: a735 d93d d692 11bf 89a3 1dbe 964b d0bd
00000090: 6a79 04bf 245c a03e d313 7c3e 384f b83e
000000a0: 20db b5bd bede 8abe a86f 713d ba3b 95bd
000000b0: 6e64 d2bc 79bb 3dbe d273 0ebe bbd5 b5bd
000000c0: bc1c 363d 9cb1 49be a62d 703c 4537 223d
000000d0: 6c31 603e 708d 84be 8221 64be 9283 51bd
000000e0: db0c 0cbe 7c28 8d3e 2869 1abe 2f9d 5abe
000000f0: b93f ab3e d25f 3cbd 959b bd3e 1a7c 18be
00000100: 1cab cdbe 6bf1 8a3e 5331 3dbe 4969 b1be
00000110: 87d4 7cbe cd49 063e 1cdc d8bd 0675 e3bd
00000120: c990 8d3e 7073 6f3e 80d4 023e 9de2 07bd
00000130: 2795 fb3d f968 8fbe 39f9 483e 4d14 db3e
00000140: b624 a3be 16e1 8d3d ca0d 573e 779a dd3e
00000150: 894e 29bd fcb9 9e3e f69a 3bbe 76c5 7d3e
00000160: fff8 9fbe 4a7c 36bd 4805 733e 1f45 11be
00000170: 385c b63b 1710 0b3e 1136 573d 452f ae3e
00000180: 4dc5 e8bc 4e15 75be 97a2 f4bd 2669 523c
00000190: a305 00be d630 c13e 4155 f33e f2ac 893e
000001a0: ce7d 5f3d 7f62 9b3e c974 053e 2132 613e
000001b0: 008d 1a3e 3a96 793e b870 67be a6c4 a13d
000001c0: 3ade a8bc 6241 99bd fd75 85be adcf 0fbe
000001d0: 0c21 89bd 8288 33bd ef4b 093f 3d74 a0be
000001e0: b515 39be 8f83 c53e e8ff 03be f0e1 f6bd
000001f0: 6740 6e3e a096 3fbe 3f78 48be 7c5e 43be
00000200: 19b3 c6bd 9d55 923e ad34 0a3f 9a8d a4be
00000210: a302 43bd 1619 713e b60c a93d c027 76bd
00000220: f8d9 823d af5a 8d3e 0f01 933d 8fb4 51be
00000230: 6a56 e8bd 8f26 50bd 725e 1cbe d2c6 f73e
00000240: 0cc4 1bbe e0d2 7ebe d8da a4bd da45 c33d
00000250: ac9f b9bb 3724 e73e 6f67 333d 7c52 763c
00000260: c602 30be ff94 fcbe 492b 163e 68bf 79be
00000270: b0d6 87bd d7a4 34bd 23f5 223e 6c3f 233d
00000280: b843 093d c8df 633e eb8b b73e 2bc1 2d3e
00000290: 7050 12bd f947 97be 0e66 413b eff6 403e
000002a0: 6aba f4bd 208d 82ba 8b21 a23d 443a 61be
000002b0: 387f 693e ebb6 8d3e a583 cd3c 58d2 f0bd
000002c0: 9a1c bcbd 6061 a0bc efec 95bc 9e39 36be
000002d0: 77c9 8e3e c7a9 973e ba0b f1be d2fe 23bd
000002e0: 0987 77bc 28e4 b73d 3973 89be 0c0d 633e
000002f0: 10ee 293c d0ef 2ebe 08a3 03be 0d03 c9bd
00000300: 4e26 ae3e 4c03 0e3b c17f 85be 3835 123d
00000310: 777f a33e f3c8 e5bd b21b 2b3e 8cbf 2ebc
00000320: 56de aebd 2d5b 563e d43e c03e 8d47 01be
00000330: ec17 5dbe a91e e93d 9023 e83e 72f4 7b3d
00000340: 0efc d83d c49a 04bd f640 0f3e cbb8 b3be
00000350: fc5f a4bb 2b1e 6bbe d8ad bbbe cbdb 66be
00000360: eeb7 22be a811 95be 4461 be3d 1a88 d1bd
00000370: 09e1 26be 463a 1bbe cbb8 0bbe f469 06be
00000380: a88f c23d f40a e93d de16 543e 8907 e4be
00000390: da24 7bbe 18b7 bebd df79 ac3e 92b5 a53c
000003a0: fb29 da3e 0f98 633e 7cb8 0d3e 9b52 90be
000003b0: a6e0 e03e 66df 7f3d 7ab1 c53c 34b0 133d
000003c0: 58ae 8e3d 180d b83d 3420 4bbe c89c e8bd
000003d0: e656 72bd 5b61 1b3e cc96 45bd cab9 6a3e
000003e0: 68db 263e ccdf 33be b2c4 87be 4093 8dbc
000003f0: a4cc 5abe eba6 17be beaa 713f 1a3b 743d
-0.16117242 0.14227253 -0.52634645 0.37256402 0.19431773 0.61027026 -0.049376223 -0.45805112
0.13808522 -0.30601636 -0.023844559 0.2610104 0.1708947 -0.15064529 -0.08047987 -0.06341153
-0.10250983 -0.07917388 -0.19485752 -0.05993647 0.20205803 -0.26843828 0.13807271 -0.041516118
0.056766212 -0.07665995 0.10086359 -0.1935347 -0.13173614 0.028050408 -0.41123343 0.46294156
0.106059365 -0.5686468 -0.15394415 -0.10170667 -0.51747763 0.31320298 0.24616937 0.3599794
-0.088796854 -0.27123064 0.058944374 -0.072867826 -0.025682654 -0.18528546 -0.1391137 -0.088786565
0.044460997 -0.19696659 0.014659321 0.03960349 0.21893853 -0.25889158 -0.22278407 -0.051150866
-0.13676779 0.2756995 -0.15079176 -0.21349023 0.33447054 -0.04598982 0.37032762 -0.14891091
-0.4016961 0.27137312 -0.18475847 -0.3465064 -0.24690448 0.1311409 -0.105888575 -0.11106305
0.27649525 0.2338388 0.12776375 -0.0331751 0.12284308 -0.28009775 0.19626321 0.42788926
-0.31863946 0.06927697 0.21001354 0.4328191 -0.041334663 0.3100127 -0.18320832 0.24782357
-0.31244656 -0.044552125 0.23732483 -0.14186524 0.0055651926 0.13580357 0.052541796 0.3402044
-0.028414393 -0.23933908 -0.11945074 0.012842452 -0.1250215 0.3773257 0.4752598 0.2688976
0.054563336 0.30348584 0.13032831 0.21991779 0.1509285 0.24373713 -0.22601593 0.07898836
-0.020613778 -0.07483174 -0.2606658 -0.14044066 -0.06695756 -0.043831356 0.5363149 -0.31338683
-0.18074687 0.38576934 -0.12890589 -0.12054813 0.23266755 -0.18709803 -0.1957712 -0.19079012
-0.09702129 0.28580943 0.53986627 -0.32139283 -0.047609936 0.23544726 0.082543775 -0.060096502
0.063892305 0.2760825 0.07177936 -0.20479034 -0.11344607 -0.050818022 -0.15270403 0.48393875
-0.15211505 -0.2488513 -0.08049554 0.095348075 -0.0056647863 0.45144817 0.043799814 0.015034314
-0.17188558 -0.49332425 0.1466495 -0.24389422 -0.06632745 -0.044102516 0.15913825 0.039855406
0.033511847 0.22253335 0.35848936 0.16968219 -0.035721242 -0.29547098 0.0029510292 0.18844198
-0.11949618 -0.0009960271 0.07916554 -0.21994883 0.22802436 0.27678618 0.025087187 -0.1175887
-0.09185143 -0.019577682 -0.018301455 -0.17795417 0.2788808 0.29621717 -0.4707926 -0.040037937
-0.0151078785 0.08979064 -0.2684572 0.22172946 0.0103717 -0.17083669 -0.1285516 -0.09815035
0.340136 0.0021669446 -0.2607403 0.035695285 0.31933185 -0.11219969 0.16709784 -0.0106657855
-0.08538501 0.20933218 0.37547934 -0.1262495 -0.21591157 0.11382801 0.45339632 0.061512418
0.105949506 -0.03237416 0.13989624 -0.35101923 -0.005016325 -0.22960727 -0.3665607 -0.22544782
-0.15890476 -0.29115033 0.09295896 -0.102310374 -0.16296782 -0.15158948 -0.13644712 -0.13126355
0.095000565 0.11379042 0.20711848 -0.44537 -0.24525777 -0.09312266 0.3368673 0.020228181
0.42610154 0.22225975 0.13839906 -0.28188023 0.43921393 0.06246891 0.024132479 0.036056712
0.06966847 0.089868724 -0.19836503 -0.11358029 -0.059164904 0.15173857 -0.048239514 0.22922435
0.16294634 -0.1756584 -0.26517254 -0.017282128 -0.21367127 -0.14809768 0.94401157 0.059626676

layer1.1.running_var f4 [512]
00000000: 7904 a340 faa1 923f 0e7b 0a41 d0fb 9d3f
00000010: 0979 ae3f 5a58 c43f 30a6 0840 ae50 b940
00000020: 0819 cf3f c777 4340 400c 7540 6deb dd3f
00000030: 867f a33f 3056 6e40 eebd 0840 e689 b83f
00000040: 61b4 8240 77b9 1a40 e160 1241 f512 c940
00000050: 7dc0 583f 6e2a 4840 5939 a23f d8b2 3140
00000060: 3fe3 a83f 855e be3f 75a9 853f 9578 9640
00000070: ab90 de3f 0905 a340 4020 e540 6de5 2440
00000080: 166e ad3f 0cdc f73f d5d0 ab40 a0fd b140
00000090: 82d3 d63f 5314 9340 f02b fb3f 830a 3040
000000a0: 73ec 6740 2890 f73f 56b9 ad40 b0b1 8d40
000000b0: e67b ef3f 3b36 a540 6665 7340 c3d3 8640
000000c0: da62 1c40 99af ec3f a7e9 603f 44c8 2540
000000d0: 77d1 b53f bec1 813f dbc0 1540 75d9 1140
000000e0: 903b d340 dc0b 1a40 e308 0941 4709 1240
000000f0: 743f c93f eed1 8f40 af74 1f40 cc0a 0c41
00000100: c261 3b3f 37ec 833f 2bf9 803f e023 8f40
00000110: 6b30 2640 dd88 0d3f a79b 503f d5bf 603f
00000120: 6be2 7740 815c d83f 4732 bf3f be15 9d40
00000130: 2ada 1b40 39e0 9340 619b be3f 4a68 e03f
00000140: b260 4e40 2ac6 1a40 cb66 643f 0375 cb3f
00000150: 474a 7e40 f6f8 aa3f ae4b a33f c5f1 4940
00000160: 96b1 7a40 94b1 0f40 fd36 8a3f 9574 1440
00000170: d36a 313f 9f13 363f 783e 6e40 48ec 5e3f
00000180: b3c3 f840 2de3 3340 5aac 963f 295d b03f
00000190: caa7 2140 bde1 b63f 97cb db3f 9738 0840
000001a0: 8ced 413f 8849 843f 26be 6940 734a cf3f
000001b0: a3eb cb3f 421d 1840 ab72 cb40 6199 1440
000001c0: 95eb 3240 a36b 1f40 9568 433f d9b4 c53f
000001d0: bb4c e13f f9bf 1440 fe46 ad3f 3014 1640
000001e0: d565 853f 4c51 753f 79d2 0540 571e bf40
000001f0: 5853 923f 0055 a340 7954 753f dac0 8440
00000200: fe23 fd40 5c62 2540 a0ea 5f3f 3ba2 8c3f
00000210: b175 fc40 22fc 613f facf 5940 3a16 2b3f
00000220: 1cc3 1240 7f95 873f 124d fc3f 331c 8740
00000230: dd07 f93f 3608 af40 f954 1240 e4b0 8c3f
00000240: 662f aa40 170e 3141 9ccb 9e40 0dba 0d40
00000250: be2d 4d40 d55b d33f 17ee d13f 0573 5440
00000260: 4f96 ac40 c0fa aa3f 9d02 943f ba87 3e40
00000270: 269a 5940 0a07 8240 2d1f 9c3f d4b8 823f
00000280: 0aef f540 805a 7b3f ae70 1140 8b64 113f
00000290: ca88 2140 8f62 ee3f c124 c540 3e4d 0040
000002a0: 80b9 af40 446b 9b3f 71f4 9740 9aeb 5240
000002b0: 0bd5 143f 9faf 2440 52b0 e83f 7eb8 8f40
000002c0: e9ab 1d40 7891 2440 13e5 8e3f 7372 523f
000002d0: 60b0 403f db51 0840 c430 8440 ca99 563f
000002e0: ab66 ae3f 95b6 ee3f 340e c13f f6d1 e23f
000002f0: 3bd1 8140 2e4d 9c40 cec7 9a40 34f4 ea3f
00000300: 2c53 cd3f 784c 0d40 4599 b53f b882 993f
00000310: 1538 cf3f 52eb 0440 0bab 753f 407d 5c40
00000320: c8a5 763f cf68 9f3f db8e 0940 9aa4 ba3f
00000330: 3720 e840 383c 163f 5fc3 6b3f 0b62 4f3f
00000340: 9c69 f63f cb98 8e3f 30cb a13f 68b2 7040
00000350: 1e76 e640 901f 0340 90b0 3e40 11ea 8440
00000360: 2e1e d63f 9147 8e3f 607d 0440 bfd2 9340
00000370: 8145 4c40 565b 903f 3a38 3a40 0c8d 8c40
00000380: 63b6 9e3f a3ff ad3f ac89 a73f 4aa2 bf40
00000390: 5da2 2a41 89aa 803f 03f6 cd3f 3a5e fe3f
000003a0: f0b4 823f 56fb 5640 df22 5d3f 6d30 ba40
000003b0: 960f e93f d45f 543f 4af5 cb3f 8767 c740
000003c0: 5f5e 4c40 9676 6b40 85e4 a63f fb55 aa3f
000003d0: 3722 9e40 32fd b73f 1729 7d40 e115 2e40
000003e0: 0da9 9a3f 210e 9e3f e29a 5540 7533 943f
000003f0: fa61 c03f 2575 2441 1f91 0940 85b7 a33f
5.094296 1.1455681 8.655043 1.2342472 1.3630687 1.5339463 2.1351433 5.7910986
1.6179514 3.0541856 3.8288727 1.7337471 1.2773292 3.7240105 2.1365924 1.4417083
4.084519 2.4175699 9.148652 6.283564 0.84668714 3.1275897 1.2673751 2.7765408
1.319435 1.4872595 1.0442339 4.7022195 1.7387899 5.0943646 7.160187 2.576503
1.354922 1.9364028 5.369242 5.56221 1.6783297 4.596231 1.9622784 2.7506416
3.6238067 1.9340868 5.428874 4.4279404 1.8709686 5.16287 3.8030639 4.21335
2.4435334 1.8491088 0.87856525 2.5903482 1.4204549 1.013725 2.339896 2.2788975
6.601021 2.4069738 8.56467 2.2818162 1.5722489 4.494376 2.4914968 8.752636
0.7319604 1.0306462 1.007604 4.4731293 2.5967052 0.5528696 0.81487507 0.8779271
3.8731945 1.690323 1.4937218 4.908904 2.4351907 4.621121 1.4891168 1.7531826
3.2246518 2.418345 0.8921935 1.5895084 3.9732835 1.3357227 1.2757471 3.1553814
3.917089 2.2452135 1.0798031 2.3196156 0.69303626 0.7112369 3.7225628 0.87079287
7.773889 2.8107407 1.1771348 1.377843 2.525866 1.428764 1.7171506 2.128454
0.7575309 1.033494 3.6522307 1.6194595 1.5931286 2.3767858 6.3577476 2.3218615
2.7956288 2.4909446 0.76331455 1.5445815 1.7601541 2.324217 1.353729 2.3449821
1.0421702 0.95827174 2.0909712 5.9724536 1.1431684 5.104126 0.9583202 4.1485415
7.9106436 2.5841284 0.87467384 1.0987009 7.8893666 0.8827535 3.403319 0.6683079
2.2931585 1.0592498 1.971102 4.2221923 1.9455525 5.4697523 2.2864363 1.0991483
5.318286 11.06594 4.9623547 2.2144806 3.205917 1.65124 1.6400784 3.3195202
5.393348 1.3357773 1.1563298 2.977034 3.4000335 4.0633593 1.2197014 1.0212655
7.6854296 0.9818497 2.2725024 0.5679404 2.523974 1.8623828 6.1607366 2.0047145
5.491394 1.214211 4.748589 3.29563 0.5813758 2.573219 1.8178809 4.491271
2.4636176 2.5713787 1.1163658 0.82205886 0.75269127 2.129996 4.130953 0.83828413
1.3625082 1.864947 1.508246 1.7720325 4.056791 4.8844213 4.83689 1.8355775
1.6041007 2.2077923 1.4187399 1.1993017 1.618899 2.0768628 0.95964116 3.4451447
0.9634671 1.245386 2.1493442 1.4581482 7.2539325 0.58685637 0.9209499 0.81008977
1.925098 1.1140379 1.2640133 3.760889 7.2019186 2.0488014 2.9795265 4.1535726
1.672796 1.111559 2.0701523 4.619476 3.1917422 1.1277874 2.9096818 4.3922176
1.239941 1.3593639 1.3088889 5.9885607 10.664639 1.0052043 1.6090702 1.9872506
1.0211468 3.3590903 0.86381334 5.8184114 1.8207881 0.8295872 1.5934231 6.2313876
3.19326 3.679113 1.3038489 1.3307489 4.9416766 1.4374144 3.955633 2.7200854
1.208284 1.2348062 3.3375783 1.1578203 1.50299 10.2786 2.1494825 1.2790381

layer2.0.weight f4 [256, 512]
00000000: a206 2abe fc54 4dbe 52ad 0bbf 9c0c 51be
00000010: e013 67be 059e 4f3e 4f8e 2d3d 51f6 2ebf
00000020: 9fca ff3c eb8b d0be 8ce9 0fbf b24f a43d
00000030: ab2f 8a3d dd84 58bf de64 8cbc 0eeb ecbe
00000040: 9775 a7be a561 8f3c 6285 92bd ec57 67bd
00000050: 3568 8ebd 84e1 09bf ab1e e4bd 1a18 8fbd
00000060: ca9f a13e 5723 9b3d e5cf fd3d 38c0 80bf
00000070: 5043 87be 7f2a f5bd 1e5e 00bf 7531 403e
00000080: 95b5 5bbe 049c 14be d1bd 1abf d755 5cbc
00000090: 81a0 76be 7f06 893e a5cd ebbd 7549 4fbe
000000a0: fab6 25be 2438 b53e 5cff 07be 86bd aebe
000000b0: 62e0 08be ab4d 203e 70ae 65bf 60f5 04be
000000c0: 6676 7b3e d6ae 6abd ea24 39bb d138 05bd
000000d0: 6448 b13e 3e9a 9abd e569 e0be f9d2 adbe
000000e0: a08e c73d 462a 753e b231 0abf 05d4 6fbe
000000f0: 1efd 313e c6ac bfbe 34e7 ab3c c3fb 4dbe
00000100: 2549 283e 6bfc 4b3e 8d3d 7d3e e731 d23d
00000110: c2c9 47bf c20b 5a3e a10b 313e 8117 74be
00000120: 6b8c c83d f1a4 003c 81d5 41bc 19db edbb
00000130: 0669 a13d 5eb0 69bf 9323 0e3c a2b7 363e
00000140: 6ac8 1abf 291f 11be a0b2 c13d d2ad 8dbc
00000150: a7b8 24bf 52c2 143e 6f16 1dbe 597d c93d
00000160: fd0b 37bd 0a73 13bf 0998 33be 4572 04bf
00000170: 1c90 a2be 0767 cebd 215d 08be 2d88 4d3d
00000180: 2383 abbe a76b 6d3e 1b56 c8bd 14af 1fbe
00000190: 28da 00bf 8301 ba3c 129c 253e 44b2 853e
000001a0: 321d 9ebc 5e2c 53bd 3d0b 283e 25e6 16be
000001b0: f41b 3cbe a696 6ebc 2696 2dbf b841 713e
000001c0: acad 10bf dbfa b4be a1bc de3e 97c5 60be
000001d0: aa18 55be 28ed debc 3b48 603e 5415 69bd
000001e0: 5cf2 e7be 8fd9 cb3d ec5a 923e 41d1 9c3d
000001f0: 0931 4cbe 289e 66be cf00 81be a776 0abf
00000200: 0a61 45bf 4bc1 20be ee0d cb3c c587 483c
00000210: ceae 28bf 6f7f 903d 8f85 efba d1e8 cfbd
00000220: 2903 8d3c fd27 cc3e d36e 133e 40b9 55bf
00000230: 15e7 3bbf 668f c9be 9864 21be 56df 3bbe
00000240: 2ec5 05bf 0fc2 cb3d 2f6d d4be f082 15bd
00000250: 049d babe 1b70 073e 647e 013e 8ddf f0be
00000260: 93a5 483e 47dd 823d c3d3 77be b269 19bf
00000270: 3e95 c7bd c7cb 133f 6275 bb3c b533 8f3e
00000280: 4eea c0bc 4fd6 6ebe e28d 7c3d 7b74 0abe
00000290: 4511 94be 1300 6f3d c1fe e2bd 6ea2 9f3e
000002a0: 2181 db3c bddb 44be aa04 dbbe 37c9 00bf
000002b0: eeff a63c c8e7 b4bd dbab 7e3d 84f2 53bf
000002c0: a147 e6bd 4341 993c 522e 59bd 124e 29be
000002d0: c4b4 563e 17f7 38be 970e 9d3d ebe3 2b3c
000002e0: c653 a0be 10b2 9d3e 1e6e a43d d4b5 d6bd
000002f0: 8634 8cbe e0c8 1c3e b7c1 0b3e 0a4a 793d
00000300: 7f91 0d3d c140 de3c 1991 c03c 9c4b 31be
00000310: 6294 12bd b388 96be c1e1 073e df83 02bf
00000320: cd1b d33d 6d66 e8bd 8da9 f2bd 004b 9fbd
00000330: 3e3d 6dbe 007b e4bd a558 b8be 029c c93e
00000340: cb18 57bd 1882 023e 412d 08bd 156d 0dbe
00000350: 4967 20be 3aea 0ebd 7ac3 7ebf c9e9 d5be
00000360: 945e 2ebd fd6a d23d 605b 16bf 046c 88be
00000370: 661f 4bbf f85c 1cbc 0b51 533e a34e 1bbf
00000380: 1c10 44be 45f2 aebc b2a7 343d 7577 b8bd
00000390: 5fdc 11bd 4e16 92be f9d8 333e 1d99 79bd
000003a0: 17df 22be 2e40 9b3d 63a5 cebc bf54 913e
000003b0: fa03 943e eae4 533c d1fc 1ebe 08e4 59be
000003c0: d790 183e cc71 d53e 0eac 04be 27d0 cf3d
000003d0: d5a8 3abf c73d 4fbc 5391 853c 70f3 cabd
000003e0: cde8 6f3d 6006 a7be bedb 62be 0709 16be
000003f0: 7b14 98be 4e7e 71be 53ba 1ebe 059a fdbd
-0.16604093 -0.2005195 -0.5456134 -0.20414966 -0.22566175 0.20275123 0.042372044 -0.683446
0.031224547 -0.4073175 -0.5621574 0.08023013 0.06747373 -0.84577733 -0.017137941 -0.46273082
-0.327069 0.017502615 -0.07154347 -0.056480333 -0.0695347 -0.53859735 -0.11138662 -0.06987019
0.31567222 0.075751 0.12393168 -1.005866 -0.26418543 -0.11970996 -0.5014361 0.18768866
-0.21455987 -0.1451264 -0.60445887 -0.0134482 -0.24084665 0.2676277 -0.11513833 -0.20242865
-0.16183081 0.35394394 -0.13281006 -0.3412897 -0.13366845 0.15654628 -0.89719296 -0.12984228
0.24556884 -0.057295643 -0.0028250762 -0.032524887 0.34625542 -0.075489506 -0.4383079 -0.33950022
0.097440004 0.23941907 -0.5398208 -0.23420723 0.17381713 -0.37436503 0.02098427 -0.2011557
0.16434152 0.19920509 0.24730511 0.10263424 -0.78042233 0.21293548 0.17289592 -0.23837091
0.097924076 0.007851825 -0.011830688 -0.0072587845 0.0788136 -0.9128474 0.008675474 0.17843488
-0.6046206 -0.14172043 0.09457898 -0.017294798 -0.6434426 0.14527252 -0.15340589 0.09838361
-0.044689167 -0.5759741 -0.17538466 -0.5173686 -0.31750572 -0.10078245 -0.13316776 0.050178695
-0.33498487 0.23185597 -0.09782048 -0.15594131 -0.5033288 0.022705799 0.16172817 0.26112568
-0.01930103 -0.051555984 0.16410537 -0.1473623 -0.18370038 -0.014562285 -0.67807233 0.23560226
-0.56515 -0.35347638 0.43503287 -0.21950375 -0.2081019 -0.027212694 0.21902554 -0.056905106
-0.45302093 0.099536054 0.28584993 0.076570995 -0.1994058 -0.2252127 -0.2519593 -0.540873
-0.77101195 -0.15698735 0.024786916 0.012239401 -0.6589173 0.07055556 -0.0018274056 -0.10151828
0.017213421 0.3987426 0.14397745 -0.83485794 -0.7339948 -0.39367217 -0.1576103 -0.18346915
-0.52254 0.09949123 -0.4148955 -0.036501825 -0.36447918 0.13226359 0.1264587 -0.47045556
0.19594412 0.063898616 -0.24201874 -0.59926903 -0.097452626 0.57732815 0.02288312 0.27969137
-0.023549225 -0.2332394 0.061658747 -0.13520996 -0.28919426 0.05834968 -0.11083747 0.31178612
0.026794972 -0.19224449 -0.42776996 -0.5030703 0.020385709 -0.08833271 0.062175613 -0.82791924
-0.11244131 0.018707877 -0.05302269 -0.16533688 0.20967394 -0.18063007 0.076687984 0.010491352
-0.31313914 0.30799913 0.08028816 -0.104839 -0.27383822 0.15311003 0.13648115 0.060861625
0.034562584 0.027130486 0.023506688 -0.17313999 -0.03578604 -0.29401168 0.13269712 -0.5098247
0.10308037 -0.11347661 -0.118487455 -0.07777977 -0.23167893 -0.11156273 -0.3600513 0.39376837
-0.05251388 0.1274494 -0.033246282 -0.13811143 -0.156644 -0.034891345 -0.99517024 -0.41779926
-0.042570665 0.10274313 -0.5873318 -0.2664491 -0.79344785 -0.00954365 0.20636384 -0.60666865
-0.1914677 -0.021355757 0.04410524 -0.090071596 -0.035610553 -0.28532642 0.17563237 -0.060937036
-0.15905415 0.07580601 -0.025225347 0.2838497 0.28909284 0.012932995 -0.1552613 -0.21278393
0.14899002 0.41688383 -0.12956259 0.10147124 -0.7291387 -0.012649006 0.016304648 -0.09909713
0.058571626 -0.3262205 -0.22154137 -0.14651881 -0.29703125 -0.23583338 -0.15500765 -0.123828925

layer2.0.bias f4 [256]
00000000: aadf 2dbd 314e efbc 1eb0 93bb dbc9 f23c
00000010: 19b0 82ba 1549 1abd 1ec8 ce3b 02cd 273d
00000020: d0e9 17bd 366a 0bbd d04d 233d 01c0 46bc
00000030: 5474 e3ba 8463 5c3c c97f 40bc 7926 89bb
00000040: bab1 353c abbd a33c c2d9 1fbd edfc 063d
00000050: 11a7 4e3b 1a06 19bd 4920 13bc b05d 883c
00000060: 4154 273d 643f 15ba 6ebc f53c 52b8 bebc
00000070: 6ba1 0ebd a3a2 123d f628 b43c f4f8 5abc
00000080: 3084 26bd f653 273d d250 03bc abcf 053d
00000090: ba4f 1c3d b752 c63c eca6 933c a80f c2bc
000000a0: df81 dbbc 845c 6d3c 6f6d 11bd 25a3 d63c
000000b0: 7ab6 843c fe45 1cbd 9a52 713b 241f f739
000000c0: 02b1 283d 0008 c8bc 4528 a8bc b7b1 463c
000000d0: 81fb 95bc 9e55 9c3c 5549 93bb 1665 1bbd
000000e0: 64da 1c3d 8dfc f93c 343e 2e3c a514 d139
000000f0: ac6a 153d d853 14bd 400a cf3c c0bb 903b
00000100: bcf8 133c a152 03bd c43c 263d 04d9 e6bc
00000110: 759b b93a a383 313d 13c2 1abd 8039 953a
00000120: d83b 2e3d d4c2 713c 60ac 7b3c b05d cb3c
00000130: f0c2 c43c b8ff 11bd 5ae5 913a d4c5 c6bb
00000140: 0db2 94bc 9cf2 5cbb ad20 2cbd e9a8 1dbd
00000150: 2177 bfbb c8db ed3c 6745 143d 6659 13bc
00000160: 9032 acbc 0fe5 4ebc a9e9 2b3d 4eb9 1b3d
00000170: 54f7 1cbd 17aa d7ba 2f62 abbc 7f1f dabb
00000180: b85d f1bc 04f2 0ebc 2d53 6c3a 6103 a93c
00000190: 452f c03c 6f78 cf3c cb87 a2bb 470f 98bc
000001a0: f956 00bc 48d7 c4b9 78f0 883b ccb1 a83c
000001b0: b02d c13c cb94 93bc 15f9 373c fa83 003d
000001c0: 2e2f 1c3d 2194 0abd ff44 64bc 5b7d 9b3c
000001d0: 502c d83c 7d27 19bb c8aa d83c 3ac4 99bc
000001e0: 9972 debc 52b9 e23a efa6 833b 694a 2c3b
000001f0: 7232 ddba 2e2a 6cbc deaa f7bc 1cf1 3ebc
00000200: b552 173d 96db 5abb 4b3d bdbb 79fd 39bb
00000210: 0050 963b 4d34 cb3c d29c 1fbd f637 c5bc
00000220: 79fd eebc 8288 a2bb 1d70 193d 1ff2 2e3d
00000230: 5b23 343c 8b64 e0bc 35b1 0cbc 4076 f63c
00000240: eea5 edbc a316 15bd 707f f33c 233c 9cbc
00000250: 4aae f1bc 6070 fbbb 42bb a8bc 1cd7 4a3c
00000260: 94a3 1b3c 6864 70bc 8b11 1ebd 8d66 c83b
00000270: 81fb 7b3c 494e 9fbc c638 0b3d e665 5ebc
00000280: f4f8 883c a750 f9bc 7a6a 053d 26ae 883c
00000290: 61ae b9bc ed2e 85bc 2642 c83c 3c9e 7d3c
000002a0: c0dc dd3c cd26 81bc 33ff 91bc 4ac8 aa3c
000002b0: 1c43 d5bc 8d50 1d3d df57 553c a4e9 04bc
000002c0: d5d5 a53c 7c06 1abd dadc bcbc ecf2 aebb
000002d0: 21ea 793b 94f8 1a3d 48f4 a0ba 97cf 1b3b
000002e0: 95ec b23b 2a3f 2abd 0ab1 1bbc 64e7 473c
000002f0: 4cdb 103d 6525 843b e427 71bc fd38 edbb
00000300: 2748 09bd ab83 9bbc ac4a 6a3c 67e9 98bc
00000310: 2277 d7bc 5771 a13b 43c6 bf3b 8803 9b3c
00000320: 2457 ef3b 545e 233d 700f 673b 7446 90bc
00000330: 8207 07bd a926 00bc f8ab 573c 55d6 ba3b
00000340: 8f56 273d 952b 083d a64e 083c 0e18 793c
00000350: 8786 213d bf83 7bbc 9bfb 1a3d 857b 65bc
00000360: d7f8 323c d02f c83c 9c48 20bd 6e09 1abd
00000370: 0e88 9d3c 7721 e8bc b685 1a3d 9496 b2bc
00000380: 9267 193d cad6 f8bc 886c afbc f2d3 5c3c
00000390: 9fec 323d c020 c8bc 26c5 bfbc ec92 0ebd
000003a0: 1611 fe3c f01a b23c 0f4b c1bc b027 013c
000003b0: b3f9 293d da7d 0ebd c932 24bd 7f4c e0bc
000003c0: 86fa 5b3c 8f3d ec3b ec21 f03c 55a2 9f3c
000003d0: 021e 003d 3bd0 28bd 7d98 0d3d 67db 013d
000003e0: ba5a e63b 9fb1 233c 32f0 243d ebcf 3a3c
000003f0: 24c5 053d 4bcc 8a3b bb3d febc 96f7 18bd
-0.04244963 -0.02921209 -0.004507079 0.029637268 -0.0009970694 -0.037667353 0.006310477 0.040966995
-0.037088215 -0.034036838 0.03986913 -0.012130738 -0.0017353394 0.013451461 -0.011749216 -0.0041854945
0.011089737 0.019987902 -0.03902603 0.032956053 0.0031532685 -0.037359335 -0.008979865 0.016646236
0.040851835 -0.0005693345 0.029997077 -0.02328125 -0.03482191 0.035799634 0.021992188 -0.013365019
-0.040653408 0.040851556 -0.0080148745 0.03266875 0.03816197 0.024209363 0.01802393 -0.023689106
-0.026795326 0.0144873895 -0.035504755 0.02620084 0.016200293 -0.038152687 0.0036822916 0.00047134713
0.041184433 -0.024417877 -0.020527015 0.012127331 -0.018308403 0.019083794 -0.004494826 -0.0379382
0.03829421 0.030515933 0.010634948 0.00039878968 0.036478683 -0.036212772 0.025273442 0.004416913
0.009031471 -0.032061223 0.040585294 -0.028179653 0.001416071 0.04333843 -0.03778274 0.0011384934
0.04253754 0.014755923 0.015360922 0.024824947 0.024018735 -0.035644263 0.0011130974 -0.0060660634
-0.018151307 -0.0033713942 -0.04202335 -0.038491163 -0.0058430587 0.029035464 0.036199 -0.008993482
-0.021020204 -0.012627854 0.041970883 0.038018517 -0.038321808 -0.0016453889 -0.020920841 -0.0066565867
-0.029463634 -0.008724693 0.00090150797 0.020631494 0.02346004 0.025325982 -0.0049600354 -0.018561972
-0.007833236 -0.0003754443 0.0041790567 0.020592593 0.023581356 -0.018015286 0.011228819 0.031375863
0.03813093 -0.033832673 -0.013932466 0.018980673 0.026388317 -0.0023369484 0.026448622 -0.018770326
-0.027154254 0.0017297661 0.004017703 0.002628947 -0.0016875996 -0.014414353 -0.030232843 -0.011654165
0.03694411 -0.0033395044 -0.005775129 -0.0028379841 0.0045871735 0.024805212 -0.038967915 -0.024074536
-0.0291736 -0.0049601207 0.037460435 0.042711373 0.0109947575 -0.027391693 -0.008587171 0.030085683
-0.029009786 -0.03639854 0.029723853 -0.019071644 -0.029502053 -0.0076733083 -0.020597104 0.012380388
0.009499449 -0.014672376 -0.03859095 0.0061157406 0.015379787 -0.019446509 0.03398969 -0.013574099
0.016720273 -0.030433966 0.032572247 0.016684603 -0.022666158 -0.016257728 0.024445605 0.015479621
0.0270828 -0.015765572 -0.017821884 0.020847458 -0.026032977 0.038406897 0.013021438 -0.008112345
0.020243565 -0.03760384 -0.023054529 -0.005339017 0.0038133936 0.03783472 -0.0012279833 0.0023774856
0.0054603317 -0.041564144 -0.009502659 0.012201164 0.035365388 0.004032778 -0.014718983 -0.0072394595
-0.033516075 -0.018983683 0.01430003 -0.018665982 -0.026301924 0.0049268412 0.005852492 0.018922582
0.007304089 0.03988488 0.0035257004 -0.01761172 -0.032966144 -0.007821717 0.013163559 0.00570182
0.040854033 0.033244688 0.0083195325 0.015203489 0.039434936 -0.015351235 0.037837606 -0.0140065
0.010923586 0.024436861 -0.039131746 -0.03760665 0.019229915 -0.02833627 0.037725173 -0.021800317
0.037452288 -0.030375857 -0.021414056 0.013478266 0.04368269 -0.024429679 -0.023409437 -0.034808084
0.031014007 0.02174136 -0.023595361 0.007882997 0.041497897 -0.03478799 -0.040087495 -0.027380226
0.013426429 0.007209487 0.02931305 0.019486586 0.031278618 -0.04121421 0.034569252 0.03170338
0.0070298584 0.009991079 0.04026813 0.011402111 0.03265871 0.0042357794 -0.031035295 -0.03734549
